…
Chosen point: {'num_neurons': 16, 'unit_c1': 2, 'unit_c2': 6, 'dr_f': 0.3105195742348489, 'learning_rate': 0.0005012494775682321, 'batch_size': 8, 'optimizer': 'SGD', 'activation': 'elu', 'data_augmentation': False, 'reg_l2': False, 'new_conv_1': -1, 'new_conv_2': 0, 'new_conv_3': 0, 'new_fc_1': -1, 'new_fc_2': 0, 'new_fc_3': 0, 'new_fc_4': 0, 'new_fc_5': -1, 'new_fc_6': -1, 'new_fc_7': 0, 'new_fc_8': -1, 'new_fc_9': -1, 'new_fc_10': 0}
Model: "model"
_________________________________________________________________
 Layer (type)                Output Shape              Param #   
=================================================================
 input_1 (InputLayer)        [(None, 32, 32, 3)]       0         
                                                                 
 conv2d (Conv2D)             (None, 32, 32, 32)        896       
                                                                 
 activation (Activation)     (None, 32, 32, 32)        0         
                                                                 
 conv2d_1 (Conv2D)           (None, 32, 32, 32)        9248      
                                                                 
 activation_1 (Activation)   (None, 32, 32, 32)        0         
                                                                 
 max_pooling2d (MaxPooling2  (None, 16, 16, 32)        0         
 D)                                                              
                                                                 
 conv2d_2 (Conv2D)           (None, 16, 16, 96)        27744     
                                                                 
 activation_2 (Activation)   (None, 16, 16, 96)        0         
                                                                 
 conv2d_3 (Conv2D)           (None, 16, 16, 96)        83040     
                                                                 
 activation_3 (Activation)   (None, 16, 16, 96)        0         
                                                                 
 max_pooling2d_1 (MaxPoolin  (None, 8, 8, 96)          0         
 g2D)                                                            
                                                                 
 flatten (Flatten)           (None, 6144)              0         
                                                                 
 dense (Dense)               (None, 10)                61450     
                                                                 
=================================================================
Total params: 182378 (712.41 KB)
Trainable params: 182378 (712.41 KB)
Non-trainable params: 0 (0.00 Byte)
_________________________________________________________________

ACCURACY: 0.2011680785451262

Score: -0.2011680785451262
[INFO] Valid  Points 10000/10000
…
Chosen point: {'num_neurons': 8, 'unit_c1': 3, 'unit_c2': 3, 'dr_f': 0.07490521566452804, 'learning_rate': 0.0009275351278521784, 'batch_size': 32, 'optimizer': 'Adamax', 'activation': 'selu', 'data_augmentation': True, 'reg_l2': False, 'new_conv_1': 0, 'new_conv_2': -1, 'new_conv_3': 0, 'new_fc_1': 0, 'new_fc_2': -1, 'new_fc_3': -1, 'new_fc_4': -1, 'new_fc_5': 0, 'new_fc_6': 0, 'new_fc_7': -1, 'new_fc_8': 0, 'new_fc_9': 0, 'new_fc_10': -1}
Model: "model"
_________________________________________________________________
 Layer (type)                Output Shape              Param #   
=================================================================
 input_1 (InputLayer)        [(None, 32, 32, 3)]       0         
                                                                 
 conv2d (Conv2D)             (None, 32, 32, 24)        672       
                                                                 
 activation (Activation)     (None, 32, 32, 24)        0         
                                                                 
 conv2d_1 (Conv2D)           (None, 32, 32, 24)        5208      
                                                                 
 activation_1 (Activation)   (None, 32, 32, 24)        0         
                                                                 
 max_pooling2d (MaxPooling2  (None, 16, 16, 24)        0         
 D)                                                              
                                                                 
 conv2d_2 (Conv2D)           (None, 16, 16, 24)        5208      
                                                                 
 activation_2 (Activation)   (None, 16, 16, 24)        0         
                                                                 
 conv2d_3 (Conv2D)           (None, 16, 16, 24)        5208      
                                                                 
 activation_3 (Activation)   (None, 16, 16, 24)        0         
                                                                 
 max_pooling2d_1 (MaxPoolin  (None, 8, 8, 24)          0         
 g2D)                                                            
                                                                 
 flatten (Flatten)           (None, 1536)              0         
                                                                 
 dense (Dense)               (None, 10)                15370     
                                                                 
=================================================================
Total params: 31666 (123.70 KB)
Trainable params: 31666 (123.70 KB)
Non-trainable params: 0 (0.00 Byte)
_________________________________________________________________

ACCURACY: 0.1277326605505229

Score: -0.1277326605505229
[INFO] Valid  Points 4954/10000
[1;36m | START SYMBOLIC DIAGNOSIS ----------------------------------  |
…
Chosen point: {'num_neurons': 8, 'unit_c1': 3, 'unit_c2': 2, 'dr_f': 0.315178049288414, 'learning_rate': 0.00045667621929788144, 'batch_size': 16, 'optimizer': 'SGD', 'activation': 'elu', 'data_augmentation': False, 'reg_l2': False, 'new_conv_1': -1, 'new_conv_2': 0, 'new_conv_3': 0, 'new_fc_1': 24, 'new_fc_2': 0, 'new_fc_3': 0, 'new_fc_4': -1, 'new_fc_5': -1, 'new_fc_6': 0, 'new_fc_7': 0, 'new_fc_8': -1, 'new_fc_9': -1, 'new_fc_10': 0}
Model: "model"
_________________________________________________________________
 Layer (type)                Output Shape              Param #   
=================================================================
 input_1 (InputLayer)        [(None, 32, 32, 3)]       0         
                                                                 
 conv2d (Conv2D)             (None, 32, 32, 24)        672       
                                                                 
 activation (Activation)     (None, 32, 32, 24)        0         
                                                                 
 conv2d_1 (Conv2D)           (None, 32, 32, 24)        5208      
                                                                 
 activation_1 (Activation)   (None, 32, 32, 24)        0         
                                                                 
 max_pooling2d (MaxPooling2  (None, 16, 16, 24)        0         
 D)                                                              
                                                                 
 conv2d_2 (Conv2D)           (None, 16, 16, 16)        3472      
                                                                 
 activation_2 (Activation)   (None, 16, 16, 16)        0         
                                                                 
 conv2d_3 (Conv2D)           (None, 16, 16, 16)        2320      
                                                                 
 activation_3 (Activation)   (None, 16, 16, 16)        0         
                                                                 
 max_pooling2d_1 (MaxPoolin  (None, 8, 8, 16)          0         
 g2D)                                                            
                                                                 
 flatten (Flatten)           (None, 1024)              0         
                                                                 
 dense (Dense)               (None, 192)               196800    
                                                                 
 activation_4 (Activation)   (None, 192)               0         
                                                                 
 dropout (Dropout)           (None, 192)               0         
                                                                 
 dense_1 (Dense)             (None, 10)                1930      
                                                                 
=================================================================
Total params: 210402 (821.88 KB)
Trainable params: 210402 (821.88 KB)
Non-trainable params: 0 (0.00 Byte)
_________________________________________________________________

ACCURACY: 0.8926470053856262

Score: -0.8926470053856262
[INFO] Valid  Points 5046/10000
…
Chosen point: {'num_neurons': 8, 'unit_c1': 3, 'unit_c2': 2, 'dr_f': 0.315178049288414, 'learning_rate': 0.00045667621929788144, 'batch_size': 16, 'optimizer': 'SGD', 'activation': 'elu', 'data_augmentation': False, 'reg_l2': False, 'new_conv_1': -1, 'new_conv_2': 0, 'new_conv_3': 0, 'new_fc_1': 24, 'new_fc_2': 22, 'new_fc_3': 0, 'new_fc_4': -1, 'new_fc_5': -1, 'new_fc_6': 0, 'new_fc_7': 0, 'new_fc_8': -1, 'new_fc_9': -1, 'new_fc_10': 0}
Model: "model"
_________________________________________________________________
 Layer (type)                Output Shape              Param #   
=================================================================
 input_1 (InputLayer)        [(None, 32, 32, 3)]       0         
                                                                 
 conv2d (Conv2D)             (None, 32, 32, 24)        672       
                                                                 
 activation (Activation)     (None, 32, 32, 24)        0         
                                                                 
 conv2d_1 (Conv2D)           (None, 32, 32, 24)        5208      
                                                                 
 activation_1 (Activation)   (None, 32, 32, 24)        0         
                                                                 
 max_pooling2d (MaxPooling2  (None, 16, 16, 24)        0         
 D)                                                              
                                                                 
 conv2d_2 (Conv2D)           (None, 16, 16, 16)        3472      
                                                                 
 activation_2 (Activation)   (None, 16, 16, 16)        0         
                                                                 
 conv2d_3 (Conv2D)           (None, 16, 16, 16)        2320      
                                                                 
 activation_3 (Activation)   (None, 16, 16, 16)        0         
                                                                 
 max_pooling2d_1 (MaxPoolin  (None, 8, 8, 16)          0         
 g2D)                                                            
                                                                 
 flatten (Flatten)           (None, 1024)              0         
                                                                 
 dense (Dense)               (None, 192)               196800    
                                                                 
 activation_4 (Activation)   (None, 192)               0         
                                                                 
 dropout (Dropout)           (None, 192)               0         
                                                                 
 dense_1 (Dense)             (None, 176)               33968     
                                                                 
 activation_5 (Activation)   (None, 176)               0         
                                                                 
 dropout_1 (Dropout)         (None, 176)               0         
                                                                 
 dense_2 (Dense)             (None, 10)                1770      
                                                                 
=================================================================
Total params: 244210 (953.95 KB)
Trainable params: 244210 (953.95 KB)
Non-trainable params: 0 (0.00 Byte)
_________________________________________________________________

ACCURACY: 0.45353689070827274

Score: -0.45353689070827274
[INFO] Valid  Points 5046/10000
…
Chosen point: {'num_neurons': 8, 'unit_c1': 3, 'unit_c2': 1, 'dr_f': 0.24982893697997965, 'learning_rate': 0.0005619466666339444, 'batch_size': 64, 'optimizer': 'Adam', 'activation': 'swish', 'data_augmentation': False, 'reg_l2': False, 'new_conv_1': -1, 'new_conv_2': 0, 'new_conv_3': -1, 'new_fc_1': -1, 'new_fc_2': -1, 'new_fc_3': 0, 'new_fc_4': 0, 'new_fc_5': 0, 'new_fc_6': -1, 'new_fc_7': 0, 'new_fc_8': 0, 'new_fc_9': -1, 'new_fc_10': -1}
Model: "model"
_________________________________________________________________
 Layer (type)                Output Shape              Param #   
=================================================================
 input_1 (InputLayer)        [(None, 32, 32, 3)]       0         
                                                                 
 conv2d (Conv2D)             (None, 32, 32, 24)        672       
                                                                 
 activation (Activation)     (None, 32, 32, 24)        0         
                                                                 
 conv2d_1 (Conv2D)           (None, 32, 32, 24)        5208      
                                                                 
 activation_1 (Activation)   (None, 32, 32, 24)        0         
                                                                 
 max_pooling2d (MaxPooling2  (None, 16, 16, 24)        0         
 D)                                                              
                                                                 
 conv2d_2 (Conv2D)           (None, 16, 16, 8)         1736      
                                                                 
 activation_2 (Activation)   (None, 16, 16, 8)         0         
                                                                 
 conv2d_3 (Conv2D)           (None, 16, 16, 8)         584       
                                                                 
 activation_3 (Activation)   (None, 16, 16, 8)         0         
                                                                 
 max_pooling2d_1 (MaxPoolin  (None, 8, 8, 8)           0         
 g2D)                                                            
                                                                 
 flatten (Flatten)           (None, 512)               0         
                                                                 
 dense (Dense)               (None, 10)                5130      
                                                                 
=================================================================
Total params: 13330 (52.07 KB)
Trainable params: 13330 (52.07 KB)
Non-trainable params: 0 (0.00 Byte)
_________________________________________________________________

ACCURACY: 0.2777021403702994

Score: -0.2777021403702994
[INFO] Valid  Points 10/10000
[1;36m | START SYMBOLIC DIAGNOSIS ----------------------------------  |
…
Chosen point: {'num_neurons': 8, 'unit_c1': 2, 'unit_c2': 3, 'dr_f': 0.1840150502483269, 'learning_rate': 0.0009359009250526075, 'batch_size': 16, 'optimizer': 'Adam', 'activation': 'elu', 'data_augmentation': False, 'reg_l2': False, 'new_conv_1': -1, 'new_conv_2': -1, 'new_conv_3': -1, 'new_fc_1': 29, 'new_fc_2': -1, 'new_fc_3': 2, 'new_fc_4': 0, 'new_fc_5': 0, 'new_fc_6': -1, 'new_fc_7': 0, 'new_fc_8': 0, 'new_fc_9': -1, 'new_fc_10': -1}
Model: "model"
_________________________________________________________________
 Layer (type)                Output Shape              Param #   
=================================================================
 input_1 (InputLayer)        [(None, 32, 32, 3)]       0         
                                                                 
 conv2d (Conv2D)             (None, 32, 32, 16)        448       
                                                                 
 activation (Activation)     (None, 32, 32, 16)        0         
                                                                 
 conv2d_1 (Conv2D)           (None, 32, 32, 16)        2320      
                                                                 
 activation_1 (Activation)   (None, 32, 32, 16)        0         
                                                                 
 max_pooling2d (MaxPooling2  (None, 16, 16, 16)        0         
 D)                                                              
                                                                 
 conv2d_2 (Conv2D)           (None, 16, 16, 24)        3480      
                                                                 
 activation_2 (Activation)   (None, 16, 16, 24)        0         
                                                                 
 conv2d_3 (Conv2D)           (None, 16, 16, 24)        5208      
                                                                 
 activation_3 (Activation)   (None, 16, 16, 24)        0         
                                                                 
 max_pooling2d_1 (MaxPoolin  (None, 8, 8, 24)          0         
 g2D)                                                            
                                                                 
 flatten (Flatten)           (None, 1536)              0         
                                                                 
 dense (Dense)               (None, 232)               356584    
                                                                 
 activation_4 (Activation)   (None, 232)               0         
                                                                 
 dropout (Dropout)           (None, 232)               0         
                                                                 
 dense_1 (Dense)             (None, 16)                3728      
                                                                 
 activation_5 (Activation)   (None, 16)                0         
                                                                 
 dropout_1 (Dropout)         (None, 16)                0         
                                                                 
 dense_2 (Dense)             (None, 10)                170       
                                                                 
=================================================================
Total params: 371938 (1.42 MB)
Trainable params: 371938 (1.42 MB)
Non-trainable params: 0 (0.00 Byte)
_________________________________________________________________

ACCURACY: 0.966139443585259

Score: -0.966139443585259
[INFO] Valid  Points 5046/10000
[1;36m | START SYMBOLIC DIAGNOSIS ----------------------------------  |
…
Chosen point: {'num_neurons': 8, 'unit_c1': 2, 'unit_c2': 4, 'dr_f': 0.3239046397134482, 'learning_rate': 0.0009527917307568433, 'batch_size': 16, 'optimizer': 'Adam', 'activation': 'elu', 'data_augmentation': False, 'reg_l2': False, 'new_conv_1': 0, 'new_conv_2': -1, 'new_conv_3': -1, 'new_fc_1': 11, 'new_fc_2': -1, 'new_fc_3': 31, 'new_fc_4': 21, 'new_fc_5': 0, 'new_fc_6': 0, 'new_fc_7': 0, 'new_fc_8': -1, 'new_fc_9': -1, 'new_fc_10': -1}
Model: "model"
_________________________________________________________________
 Layer (type)                Output Shape              Param #   
=================================================================
 input_1 (InputLayer)        [(None, 32, 32, 3)]       0         
                                                                 
 conv2d (Conv2D)             (None, 32, 32, 16)        448       
                                                                 
 activation (Activation)     (None, 32, 32, 16)        0         
                                                                 
 conv2d_1 (Conv2D)           (None, 32, 32, 16)        2320      
                                                                 
 activation_1 (Activation)   (None, 32, 32, 16)        0         
                                                                 
 max_pooling2d (MaxPooling2  (None, 16, 16, 16)        0         
 D)                                                              
                                                                 
 conv2d_2 (Conv2D)           (None, 16, 16, 32)        4640      
                                                                 
 activation_2 (Activation)   (None, 16, 16, 32)        0         
                                                                 
 conv2d_3 (Conv2D)           (None, 16, 16, 32)        9248      
                                                                 
 activation_3 (Activation)   (None, 16, 16, 32)        0         
                                                                 
 max_pooling2d_1 (MaxPoolin  (None, 8, 8, 32)          0         
 g2D)                                                            
                                                                 
 flatten (Flatten)           (None, 2048)              0         
                                                                 
 dense (Dense)               (None, 88)                180312    
                                                                 
 activation_4 (Activation)   (None, 88)                0         
                                                                 
 dropout (Dropout)           (None, 88)                0         
                                                                 
 dense_1 (Dense)             (None, 248)               22072     
                                                                 
 activation_5 (Activation)   (None, 248)               0         
                                                                 
 dropout_1 (Dropout)         (None, 248)               0         
                                                                 
 dense_2 (Dense)             (None, 168)               41832     
                                                                 
 activation_6 (Activation)   (None, 168)               0         
                                                                 
 dropout_2 (Dropout)         (None, 168)               0         
                                                                 
 dense_3 (Dense)             (None, 10)                1690      
                                                                 
=================================================================
Total params: 262562 (1.00 MB)
Trainable params: 262562 (1.00 MB)
Non-trainable params: 0 (0.00 Byte)
_________________________________________________________________

ACCURACY: 0.6557842706288534

Score: -0.6557842706288534
[INFO] Valid  Points 5046/10000
[1;36m | START SYMBOLIC DIAGNOSIS ----------------------------------  |
…
Chosen point: {'num_neurons': 8, 'unit_c1': 2, 'unit_c2': 4, 'dr_f': 0.4798155079512778, 'learning_rate': 0.0009004798572358746, 'batch_size': 16, 'optimizer': 'Adagrad', 'activation': 'elu', 'data_augmentation': False, 'reg_l2': False, 'new_conv_1': 0, 'new_conv_2': 0, 'new_conv_3': -1, 'new_fc_1': 19, 'new_fc_2': 3, 'new_fc_3': 21, 'new_fc_4': 9, 'new_fc_5': 13, 'new_fc_6': -1, 'new_fc_7': 0, 'new_fc_8': -1, 'new_fc_9': -1, 'new_fc_10': 0}
Model: "model"
_________________________________________________________________
 Layer (type)                Output Shape              Param #   
=================================================================
 input_1 (InputLayer)        [(None, 32, 32, 3)]       0         
                                                                 
 conv2d (Conv2D)             (None, 32, 32, 16)        448       
                                                                 
 activation (Activation)     (None, 32, 32, 16)        0         
                                                                 
 conv2d_1 (Conv2D)           (None, 32, 32, 16)        2320      
                                                                 
 activation_1 (Activation)   (None, 32, 32, 16)        0         
                                                                 
 max_pooling2d (MaxPooling2  (None, 16, 16, 16)        0         
 D)                                                              
                                                                 
 conv2d_2 (Conv2D)           (None, 16, 16, 32)        4640      
                                                                 
 activation_2 (Activation)   (None, 16, 16, 32)        0         
                                                                 
 conv2d_3 (Conv2D)           (None, 16, 16, 32)        9248      
                                                                 
 activation_3 (Activation)   (None, 16, 16, 32)        0         
                                                                 
 max_pooling2d_1 (MaxPoolin  (None, 8, 8, 32)          0         
 g2D)                                                            
                                                                 
 flatten (Flatten)           (None, 2048)              0         
                                                                 
 dense (Dense)               (None, 152)               311448    
                                                                 
 activation_4 (Activation)   (None, 152)               0         
                                                                 
 dropout (Dropout)           (None, 152)               0         
                                                                 
 dense_1 (Dense)             (None, 24)                3672      
                                                                 
 activation_5 (Activation)   (None, 24)                0         
                                                                 
 dropout_1 (Dropout)         (None, 24)                0         
                                                                 
 dense_2 (Dense)             (None, 168)               4200      
                                                                 
 activation_6 (Activation)   (None, 168)               0         
                                                                 
 dropout_2 (Dropout)         (None, 168)               0         
                                                                 
 dense_3 (Dense)             (None, 72)                12168     
                                                                 
 activation_7 (Activation)   (None, 72)                0         
                                                                 
 dropout_3 (Dropout)         (None, 72)                0         
                                                                 
 dense_4 (Dense)             (None, 104)               7592      
                                                                 
 activation_8 (Activation)   (None, 104)               0         
                                                                 
 dropout_4 (Dropout)         (None, 104)               0         
                                                                 
 dense_5 (Dense)             (None, 10)                1050      
                                                                 
=================================================================
Total params: 356786 (1.36 MB)
Trainable params: 356786 (1.36 MB)
Non-trainable params: 0 (0.00 Byte)
_________________________________________________________________

ACCURACY: 0.5654629733280582

Score: -0.5654629733280582
[INFO] Valid  Points 5046/10000
[1;36m | START SYMBOLIC DIAGNOSIS ----------------------------------  |
…
Chosen point: {'num_neurons': 8, 'unit_c1': 3, 'unit_c2': 6, 'dr_f': 0.03320765531700986, 'learning_rate': 0.0003099214726736831, 'batch_size': 16, 'optimizer': 'Adadelta', 'activation': 'elu', 'data_augmentation': True, 'reg_l2': False, 'new_conv_1': -1, 'new_conv_2': 0, 'new_conv_3': 0, 'new_fc_1': 22, 'new_fc_2': 1, 'new_fc_3': 22, 'new_fc_4': 4, 'new_fc_5': 11, 'new_fc_6': -1, 'new_fc_7': 0, 'new_fc_8': 0, 'new_fc_9': -1, 'new_fc_10': -1}
Model: "model"
_________________________________________________________________
 Layer (type)                Output Shape              Param #   
=================================================================
 input_1 (InputLayer)        [(None, 32, 32, 3)]       0         
                                                                 
 conv2d (Conv2D)             (None, 32, 32, 24)        672       
                                                                 
 activation (Activation)     (None, 32, 32, 24)        0         
                                                                 
 conv2d_1 (Conv2D)           (None, 32, 32, 24)        5208      
                                                                 
 activation_1 (Activation)   (None, 32, 32, 24)        0         
                                                                 
 max_pooling2d (MaxPooling2  (None, 16, 16, 24)        0         
 D)                                                              
                                                                 
 conv2d_2 (Conv2D)           (None, 16, 16, 48)        10416     
                                                                 
 activation_2 (Activation)   (None, 16, 16, 48)        0         
                                                                 
 conv2d_3 (Conv2D)           (None, 16, 16, 48)        20784     
                                                                 
 activation_3 (Activation)   (None, 16, 16, 48)        0         
                                                                 
 max_pooling2d_1 (MaxPoolin  (None, 8, 8, 48)          0         
 g2D)                                                            
                                                                 
 flatten (Flatten)           (None, 3072)              0         
                                                                 
 dense (Dense)               (None, 176)               540848    
                                                                 
 activation_4 (Activation)   (None, 176)               0         
                                                                 
 dropout (Dropout)           (None, 176)               0         
                                                                 
 dense_1 (Dense)             (None, 8)                 1416      
                                                                 
 activation_5 (Activation)   (None, 8)                 0         
                                                                 
 dropout_1 (Dropout)         (None, 8)                 0         
                                                                 
 dense_2 (Dense)             (None, 176)               1584      
                                                                 
 activation_6 (Activation)   (None, 176)               0         
                                                                 
 dropout_2 (Dropout)         (None, 176)               0         
                                                                 
 dense_3 (Dense)             (None, 32)                5664      
                                                                 
 activation_7 (Activation)   (None, 32)                0         
                                                                 
 dropout_3 (Dropout)         (None, 32)                0         
                                                                 
 dense_4 (Dense)             (None, 88)                2904      
                                                                 
 activation_8 (Activation)   (None, 88)                0         
                                                                 
 dropout_4 (Dropout)         (None, 88)                0         
                                                                 
 dense_5 (Dense)             (None, 10)                890       
                                                                 
=================================================================
Total params: 590386 (2.25 MB)
Trainable params: 590386 (2.25 MB)
Non-trainable params: 0 (0.00 Byte)
_________________________________________________________________

ACCURACY: 0.2717039222476721

Score: -0.2717039222476721
[INFO] Valid  Points 4954/10000
[1;36m | START SYMBOLIC DIAGNOSIS ----------------------------------  |
…
